…
s/vgg19/vgg19_weights_tf_dim_ordering_tf_kernels_notop.h5\n","80142336/80134624 [==============================] - 1s 0us/step\n","80150528/80134624 [==============================] - 1s 0us/step\n","Model: \"vgg19\"\n","_________________________________________________________________\n"," Layer (type)                Output Shape              Param #   \n","=================================================================\n"," input_1 (InputLayer)        [(None, 400, 400, 3)]     0         \n","                                                                 \n"," block1_conv1 (Conv2D)       (None, 400, 400, 64)      1792      \n","                                                                 \n"," block1_conv2 (Conv2D)       (None, 400, 400, 64)      36928     \n","                                                                 \n"," block1_pool (MaxPooling2D)  (None, 200, 200, 64)      0         \n","                                                                 \n"," block2_conv1 (Conv2D)       (None, 200, 200, 128)     73856     \n","                                                                 \n"," block2_conv2 (Conv2D)       (None, 200, 200, 128)     147584    \n","                                                                 \n"," block2_pool (MaxPooling2D)  (None, 100, 100, 128)     0         \n","                                                                 \n"," block3_conv1 (Conv2D)       (None, 100, 100, 256)     295168    \n","                                                                 \n"," block3_conv2 (Conv2D)       (None, 100, 100, 256)     590080    \n","                                                                 \n"," block3_conv3 (Conv2D)       (None, 100, 100, 256)     590080    \n","                                                                 \n"," block3_conv4 (Conv2D)       (None, 100, 100, 256)     590080    \n","                                                                 \n"," block3_pool (MaxPooling2D)  (None, 50, 50, 256)       0         \n","                                                                 \n"," block4_conv1 (Conv2D)       (None, 50, 50, 512)       1180160   \n","                                                                 \n"," block4_conv2 (Conv2D)       (None, 50, 50, 512)       2359808   \n","                                                                 \n"," block4_conv3 (Conv2D)       (None, 50, 50, 512)       2359808   \n","                                                                 \n"," block4_conv4 (Conv2D)       (None, 50, 50, 512)       2359808   \n","                                                                 \n"," block4_pool (MaxPooling2D)  (None, 25, 25, 512)       0         \n","                                                                 \n"," block5_conv1 (Conv2D)       (None, 25, 25, 512)       2359808   \n","                                                                 \n"," block5_conv2 (Conv2D)       (None, 25, 25, 512)       2359808   \n","                                                                 \n"," block5_conv3 (Conv2D)       (None, 25, 25, 512)       2359808   \n","                                                                 \n"," block5_conv4 (Conv2D)       (None, 25, 25, 512)       2359808   \n","                                                                 \n"," block5_pool (MaxPooling2D)  (None, 12, 12, 512)       0         \n","                                                                 \n","=================================================================\n","Total params: 20,024,384\n","Trainable params: 20,024,384\n","Non-trainable params: 0\n","_________________________________________________________________\n"]}]},{"cell_type":"code","metadata":{"id":"RKga4EgoHnca"},"source":[""],"execution_count
…
